src/models/final/best_model_20241113_103731.pth (torch, 114546 bytes, 32 tensors)

encoder.0.weight f4 [128, 11]
0.15952604 0.17880689 -0.06783478 0.27997547 -0.07540498 0.0512898 -0.07933203 0.1826453
0.26873392 -0.21935466 0.25659823 0.007355669 0.15197584 0.03929911 0.14482427 -0.05021921
0.21694745 0.0029734382 -0.13329883 0.07515385 -0.15859494 -0.04327073 -0.057076585 0.12993161
-0.23659599 -0.13481641 -0.092086926 -0.19494325 0.00047559774 -0.27361882 0.27648506 -0.27406374
0.22662477 0.0047536814 -0.035827167 0.17224495 0.06315528 0.24948569 0.018358806 -0.033517174
0.09172169 -0.06509136 0.14818 0.2734462 0.10525776 -0.06552909 0.18634528 0.050756846
0.16312362 -0.16465218 -0.2261641 -0.1204596 -0.23414701 0.23395215 0.09389338 0.059256393
0.03373532 -0.006500986 0.24695098 -0.19889252 0.038801312 -0.13551897 0.10351262 -0.09292162
0.10868196 -0.047315046 0.17862424 -0.10947046 -0.1984888 -0.17885278 0.2551143 0.0854531
0.21795313 -0.26439363 -0.29887637 -0.22544588 -0.21367794 0.056775533 0.044326913 0.252723
-0.15413316 -0.19985484 0.16642898 -0.056549422 0.18985166 -0.07043218 0.16910893 -0.23012803
-0.08434146 0.03096121 0.05180143 -0.07868142 0.1810421 0.20954151 -0.1479774 -0.15610655
0.27427623 -0.11795713 -0.0995944 -0.21953623 -0.10371116 0.09164979 -0.04623147 -0.20705627
0.017455291 -0.1356764 -0.2674835 -0.17220423 -0.24912347 -0.1902771 0.22904311 0.00759835
0.10827452 -0.28171402 -0.18458495 -0.092426695 0.0037264975 -0.2748524 -0.13035189 -0.17078619
-0.00338154 -0.047993716 -0.00015319962 -0.21101242 -0.2156894 -0.18540464 -0.104771435 -0.16680028
0.25170276 -0.068474256 0.24355675 0.086444706 -0.18375666 0.13829195 -0.07621657 -0.103188045
-0.23974635 -0.3087231 0.02651507 -0.039706096 0.129741 -0.24977106 0.22624224 -0.15058406
-0.005471007 0.06981041 0.14881568 0.23481792 0.2726347 -0.16787465 0.08313223 -0.13602762
-0.04585928 -0.22902437 0.20270894 -0.15055373 0.1570689 0.114652246 0.09326248 -0.17672652
0.20214324 0.08344555 0.046523705 -0.2543064 0.12508279 -0.0031572254 -0.071315356 0.25121588
0.04878613 -0.1826184 -0.14903834 -4.8465714e-05 0.15266314 -0.09560072 -0.17791048 -0.118963815
-0.15439847 0.043952152 0.23475258 -0.267339 0.085886024 0.14805955 0.0065603517 -0.09451143
0.17401303 0.17115593 0.12283518 -0.0058421395 -0.021699954 0.031829774 -0.04892507 -0.083323725
0.19930324 0.18748137 -0.022260867 -0.06467066 0.008826333 -0.011053813 0.01656783 0.025161255
-0.2751933 -0.12038619 0.26138374 0.13130979 -5.437025e-05 -0.18009299 -0.19289677 -0.24808232
-0.095763765 0.039096538 0.12245047 0.13813563 -0.26345327 -0.17720407 -0.046701692 0.21946405
0.041710857 -0.07581526 0.13690414 -0.11181382 -0.12524684 0.14935766 -0.14562874 -0.056566797
-0.2861234 0.21001281 0.15749547 0.105316125 -0.20614037 -0.30904144 -0.23504081 0.15399526
0.07744535 0.24866356 0.14992693 0.06942236 -0.002494474 -0.15833715 -0.26475322 -0.29055825
0.1145994 -0.15171586 -0.00946975 -0.10452355 -0.061920367 -0.20951131 -0.20674583 0.090021975
-0.029121054 0.19522242 -0.093829 -0.20423588 -0.061849497 -0.07874287 -0.031217642 -0.29869914
00000000: cb5a 233e 2719 373e f6ec 8abd f258 8f3e
00000010: ed6d 9abd 4115 523d d578 a2bd 5f07 3b3e
00000020: 7e97 893e 829e 60be d860 833e d307 f13b
00000030: 8e9f 1b3e 1bf8 203d d04c 143e a9b2 4dbd
00000040: 7927 5e3e 04de 423b 7d7f 08be 43ea 993d
00000050: b666 22be a63c 31bd 23c9 69bd cb0c 053e
00000060: 3846 72be 500d 0abe 1298 bcbd 349f 47be
00000070: a659 f939 c417 8cbe 738f 8d3e 1552 8cbe
00000080: 5310 683e c5c4 9b3b 82bf 12bd fb60 303e
00000090: 8e57 813d 2d79 7f3e 3565 963c 4e49 09bd
000000a0: 95d8 bb3d 9e4e 85bd 7fbc 173e 2401 8c3e
000000b0: 6191 d73d 1e34 86bd 4cd1 3e3e 69e6 4f3d
000000c0: e109 273e 959a 28be 9097 67be 86b3 f6bd
000000d0: 3cc4 6fbe 2791 6f3e 2c4b c03d d5b6 723d
000000e0: 0c2e 0a3d 3906 d5bb b8e0 7c3e 7baa 4bbe
000000f0: 20ee 1e3d 7cc5 0abe 6dfe d33d b14d bebd
00000100: a694 de3d 6ccd 41bd 46e9 363e 0c32 e0bd
00000110: a640 4bbe 2f25 37be 579e 823e 0902 af3d
00000120: 1b2f 5f3e 9a5e 87be 5306 99be 49db 66be
00000130: 64ce 5abe 768d 683d 2390 353d e964 813e
00000140: 15d5 1dbe bfa6 4cbe 5c6c 2a3e 5ea0 67bd
00000150: 7968 423e bf3e 90bd e42a 2d3e afa6 6bbe
00000160: 37bb acbd 5da2 fd3c bc2d 543d b923 a1bd
00000170: 1a63 393e 0d92 563e 6387 17be 65da 1fbe
00000180: ef6d 8c3e 8293 f1bd 26f8 cbbd 1bce 60be
00000190: 8466 d4bd e3b2 bb3d 365d 3dbd 8f06 54be
000001a0: 66fe 8e3c c1ee 0abe 99f3 88be 4e56 30be
000001b0: 391a 7fbe 00d8 42be 478a 6a3e 94fb f83b
000001c0: 08bf dd3d d23c 90be d603 3dbe 354a bdbd
000001d0: 4138 743b 74b9 8cbe f77a 05be 93e2 2ebe
000001e0: d49c 5dbb 0f95 44bd 36a4 20b9 a413 58be
000001f0: afdd 5cbe b7da 3dbe 6892 d6bd b1cd 2abe
00000200: 2fdf 803e 3b3c 8cbd f166 793e ec09 b13d
00000210: b52a 3cbe 689c 0d3e 6f17 9cbd 4154 d3bd
00000220: 1180 75be f410 9ebe 2236 d93c dca2 22bd
00000230: d3da 043e fcc3 7fbe 0cac 673e b532 1abe
00000240: 2246 b3bb c3f8 8e3d 2363 183e 1c74 703e
00000250: c796 8b3e 55e7 2bbe 3b41 aa3d d34a 0bbe
00000260: f1d6 3bbd 5d85 6abe ef92 4f3e c22a 1abe
00000270: abd6 203e ccce ea3d 6600 bf3d ccf7 34be
00000280: a3fe 4e3e 80e5 aa3d a48f 3e3d 7334 82be
00000290: b415 003e 74e9 4ebb c90d 92bd 5e9f 803e
000002a0: f7d3 473d 5100 3bbe 829d 18be aa47 4bb8
000002b0: ba53 1c3e 4fca c3bd 2a2e 36be 4da3 f3bd
000002c0: a21a 1ebe 2c07 343d fb62 703e a8e0 88be
000002d0: 03e5 af3d ec9c 173e 38f8 d63b 358f c1bd
000002e0: 7930 323e 8043 2f3e 0391 fb3d 6b6f bfbb
000002f0: 1ac4 b1bc f05f 023d a765 48bd a1a5 aabd
00000300: 2616 4c3e 1efb 3f3e 6c5c b6bc 0d72 84bd
00000310: 539c 103c 0d1b 35bc 42b9 873c fa1e ce3c
00000320: 23e6 8cbe 098d f6bd 17d4 853e 1376 063e
00000330: 9d0b 64b8 4c6a 38be bb86 45be 4b09 7ebe
00000340: cb1f c4bd b123 203d 50c7 fa3d 6d73 0d3e
00000350: 59e3 86be fc74 35be 464a 3fbd 2fbb 603e
00000360: 01d9 2a3d 0845 9bbd 9930 0c3e a5fe e4bd
00000370: b540 00be 37f1 183e b31f 15be 96b2 67bd
00000380: c47e 92be 990d 573e 7e46 213e fbaf d73d
00000390: 7616 53be ae3a 9ebe 8aae 70be efb0 1d3e
000003a0: ab9b 9e3d a9a1 7e3e 7286 193e 4f2d 8e3d
000003b0: 547a 23bb 2223 22be bc8d 87be 0dc4 94be
000003c0: 17b3 ea3d 675b 1bbe 0327 1bbc 7110 d6bd
000003d0: 36a0 7dbd 228a 56be 2eb5 53be 715d b83d
000003e0: 478f eebc 63e8 473e 6b29 c0bd 3623 51be
000003f0: e655 7dbd f143 a1bd 24bc ffbc 18ef 98be

encoder.0.bias f4 [128]
-0.09779436 4.7040077e-05 -0.0024067697 0.026489995 3.9486953e-05 -0.08285973 -0.040771544 -3.6738484e-06
-0.11850358 0.00023444834 -0.0001627988 0.052201323 0.01581916 0.15478225 -2.1593001e-05 -0.1520047
0.06823744 -0.13356625 -0.0022117984 -0.035603683 -0.04992848 -0.0474356 0.20509443 0.103651606
0.024454793 0.21103807 -0.20133556 0.0042209984 0.12319197 0.1301997 -0.1687391 0.043758966
-0.10285514 -3.3727087e-05 -0.010685774 -0.18026495 -0.21548058 -0.12834847 0.0701093 0.07113121
-0.19054481 -0.048905417 3.0579629e-06 -0.1890141 0.10106989 0.20118883 0.0059858733 -0.15320867
0.015141159 0.04560963 0.16755582 -0.0921111 -0.19828515 0.066128105 0.00010972048 -0.036108512
-0.060565583 -0.08743987 0.17275621 -0.0054562045 0.14681803 0.1973179 0.001574426 0.011428125
-0.00014654182 0.13676894 -0.19981495 0.05479642 -0.004379946 0.070897266 4.826672e-06 -0.04751199
-0.00081328687 0.09436811 -0.13901614 -0.120850325 -0.013396362 -0.045534346 0.053494897 0.13273191
-0.00079193 0.21300411 -0.060239904 -0.1004107 -0.068424344 -0.13739748 -0.14089093 -0.19683266
-0.19543082 0.0208741 0.11441856 0.21100658 0.18523242 -8.460946e-05 0.008365625 -0.11109146
0.051809255 -0.21694167 0.07508886 0.006839447 0.031547382 0.046429265 -0.07158669 0.18710057
0.07664755 0.1280576 0.0018755472 0.11966028 0.13274392 0.06996087 0.15871222 -0.0065609575
0.12824306 0.014602064 0.11206559 0.22143829 0.013859388 -0.047746073 -0.0005868505 0.025458517
0.004997931 -0.0235585 0.16510673 0.11180837 -0.11768176 -0.00027360523 -0.00051635667 -0.11929896
00000000: 6948 c8bd e64c 4538 e5ba 1dbb 8c01 d93c
00000010: cb9e 2538 5db2 a9bd 1000 27bd 3c8c 76b6
00000020: 01b2 f2bd 3fd6 7539 f8b4 2ab9 0ed1 553d
00000030: 2f97 813c 3d7f 1e3e 9e22 b5b7 1fa7 1bbe
00000040: 12c0 8b3d 97c5 08be d2f3 10bb 2bd5 11bd
00000050: ce81 4cbd d54b 42bd 4604 523e 4b47 d43d
00000060: 6b55 c83c 5d1a 583e e92a 4ebe 4d50 8a3b
00000070: 124c fc3d 1253 053e f1c9 2cbe 9a3c 333d
00000080: b7a5 d2bd 2f76 0db8 6213 2fbc 6097 38be
00000090: f1a6 5cbe c86d 03be 7795 8f3d 3dad 913d
000000a0: 2e1e 43be 0c51 48bd 6737 4d36 ea8c 41be
000000b0: bbfd ce3d 7204 4e3e 2525 c43b bce2 1cbe
000000c0: a012 783c 2ad1 3a3d c193 2b3e bfa4 bcbd
000000d0: 430b 4bbe 2c6e 873d bc19 e638 85e6 13bd
000000e0: 9e13 78bd ad13 b3bd 01e7 303e f6c9 b2bb
000000f0: 7757 163e b40d 4a3e f85c ce3a 083d 3b3c
00000100: 05a9 19b9 280d 0c3e 4a9c 4cbe 3672 603d
00000110: a685 8fbb 9632 913d ccf4 a136 ef9b 42bd
00000120: c232 55ba 1144 c13d 3f5a 0ebe 6080 f7bd
00000130: 6a7c 5bbc 3982 3abd 771d 5b3d e0ea 073e
00000140: 8699 4fba c01d 5a3e 1ebe 76bd 20a4 cdbd
00000150: 1022 8cbd edb1 0cbe b645 10be 808e 49be
00000160: 041f 48be 2900 ab3c 4754 ea3d 1c12 583e
00000170: 91ad 3d3e 5c70 b1b8 f90f 093c eb83 e3bd
00000180: f135 543d f525 5ebe 30c8 993d 711d e03b
00000190: d437 013d 9d2c 3e3d 0b9c 92bd 4b97 3f3e
000001a0: 64f9 9c3d 8821 033e ecd4 f53a 7310 f53d
000001b0: 06ee 073e a547 8f3d 7585 223e 4dfd d6bb
000001c0: 2652 033e 7f3d 6f3c a582 e53d b8c0 623e
000001d0: 7d12 633c 6391 43bd dfd6 19ba 618e d03c
000001e0: afc5 a33b c1fd c0bc bd11 293e c9fb e43d
000001f0: 2203 f1bd ac72 8fb9 1c5c 07ba 0353 f4bd

encoder.1.weight f4 [128]
0.99645376 1.0088315 1.006599 1.0005298 0.98857 1.0040348 0.9851083 0.97714037
1.0104471 1.0082501 0.99631464 0.9975271 1.00701 1.0039221 1.0008252 0.9898939
1.0051341 0.978923 1.0109988 0.9872651 1.0090812 1.004447 1.0097942 1.0017316
0.99754107 1.0016474 1.0021386 0.99678737 1.0014416 1.0007434 0.9880071 1.0022892
1.0097209 1.0101687 1.014426 0.99321985 0.98484844 1.0135838 1.0131682 1.0036962
0.9937025 1.0087608 0.98753494 1.0094469 0.9944077 0.9844284 0.99180895 1.0177163
0.9998088 1.0022151 0.9879445 0.9994188 0.98623365 0.99117464 1.0144292 0.9928396
0.9921624 1.007418 0.99803257 1.0228332 0.99508655 1.0069715 0.9761434 1.0132419
1.008875 1.0062436 1.0023651 0.98958033 1.0170175 0.97876906 1.0129348 0.99821544
1.0070361 0.99513954 0.9889285 1.0162187 1.0017542 1.004985 0.9980317 1.0006367
0.9987274 1.0213045 1.0118556 0.9887885 0.99568015 1.0020937 0.98946625 1.0020169
1.0121104 0.99040973 0.9982187 1.0005305 1.0061553 0.99771374 1.0038732 0.9936348
0.98713136 1.0100852 0.993614 1.0013813 0.9877701 1.0032974 1.0110059 0.99816144
0.9894541 1.0075645 0.98739403 1.010701 1.0047933 1.0042038 0.99681926 0.99695665
0.98343843 1.0019188 0.9915137 1.0027184 0.98669666 1.0063673 1.0000807 1.0068667
0.9989851 1.002715 0.9840771 0.9936995 1.0002557 1.0057379 0.9943052 1.0062574
00000000: 9817 7f3f 6421 813f 3cd8 803f 5c11 803f
00000010: ec12 7d3f 3684 803f 0f30 7c3f df25 7a3f
00000020: 5556 813f 570e 813f 7a0e 7f3f f05d 7f3f
00000030: b4e5 803f 8580 803f 0a1b 803f b069 7d3f
00000040: 3ca8 803f b39a 7a3f 6968 813f 68bd 7c3f
00000050: 9329 813f b891 803f f040 813f be38 803f
00000060: da5e 7f3f fb35 803f 1446 803f 752d 7f3f
00000070: 3d2f 803f 5c18 803f 09ee 7c3f 034b 803f
00000080: 893e 813f 354d 813f b6d8 813f a843 7e3f
00000090: 071f 7c3f 1dbd 813f 7faf 813f 1e79 803f
000000a0: 4963 7e3f 131f 813f 17cf 7c3f 8e35 813f
000000b0: 8191 7e3f 8003 7c3f 31e7 7d3f 8744 823f
000000c0: 78f3 7f3f 9648 803f eee9 7c3f e9d9 7f3f
000000d0: cf79 7c3f 9fbd 7d3f d1d8 813f bc2a 7e3f
000000e0: 5bfe 7d3f 13f3 803f 107f 7f3f 33ec 823f
000000f0: febd 7e3f 71e4 803f 89e4 793f e9b1 813f
00000100: d122 813f 97cc 803f 804d 803f 2355 7d3f
00000110: a12d 823f 9c90 7a3f d9a7 813f 0c8b 7f3f
00000120: 8fe6 803f 77c1 7e3f 6b2a 7d3f 7413 823f
00000130: 7b39 803f 59a3 803f 017f 7f3f dd14 803f
00000140: 99ac 7f3f 1bba 823f 7c84 813f 3e21 7d3f
00000150: e5e4 7e3f 9b44 803f a94d 7d3f 1742 803f
00000160: d58c 813f 7e8b 7d3f 438b 7f3f 6211 803f
00000170: b2c9 803f 2b6a 7f3f eb7e 803f da5e 7e3f
00000180: a4b4 7c3f 794a 813f 7d5d 7e3f 432d 803f
00000190: 80de 7c3f 0d6c 803f a468 813f 8287 7f3f
000001a0: dd4c 7d3f e0f7 803f dbc5 7c3f a65e 813f
000001b0: 119d 803f c089 803f 8c2f 7f3f 8d38 7f3f
000001c0: 9fc2 7b3f e03e 803f d8d3 7d3f 1459 803f
000001d0: 2798 7c3f a5d0 803f a502 803f 02e1 803f
000001e0: 7dbd 7f3f f758 803f 7aec 7b3f 1763 7e3f
000001f0: 6108 803f 05bc 803f c98a 7e3f 0bcd 803f

encoder.1.bias f4 [128]
-0.0046756677 0.0033972673 -0.0023354213 -0.016003888 -0.015492609 -0.008663587 -0.01687338 -0.02664139
0.009538213 -0.0040484974 -0.017556285 -0.0035372633 -0.001271753 -0.0046602287 0.0005279364 -0.010752613
-0.001603653 -0.020304916 -0.009931457 -0.013934572 -0.0027300476 0.0032728536 -0.0067987368 -0.0037354652
-0.012873028 0.0006686564 0.002079925 -0.0043133916 -0.004087411 -0.0046101627 -0.008003356 -0.009249598
0.0039026937 0.003175428 0.001831941 -0.019660488 -0.018710412 -0.0013405046 -0.0020117073 -0.004324909
-0.013390594 0.0023403105 -0.017050618 0.009478358 -0.0050149704 -0.023164393 -0.016501276 -0.008144486
-0.013364212 -0.014427057 -0.020441504 -0.010593128 -0.015833257 -0.0052386923 -0.0012701356 -0.020490441
-0.01179399 -0.009625984 -0.010238941 0.0011359861 -0.008575917 -0.0025763037 -0.02520214 0.007179556
0.0016300097 -0.002662775 -0.0061513996 -0.008609392 0.004611822 -0.02062936 -0.0015745818 -0.008354375
0.002827288 -0.012979363 -0.0093197115 0.003938932 -0.007608888 0.0015189615 -0.013461069 0.0011948554
-0.0015199987 0.0007193804 -0.006669745 -0.020110957 -0.010239817 -0.0064409105 -0.011616138 -0.0040254775
-0.008521902 -0.011583122 -0.0041430956 -0.015122327 0.0032295228 -0.009234169 0.0031691352 -0.007112451
-0.021784984 0.009380124 -0.0083427215 -0.007461776 -0.011899183 0.008634333 -0.0019819306 -0.006479132
-0.010109842 0.0057637957 -0.013551269 0.0090963 -0.00054856914 -0.010327495 8.57533e-05 -0.008330775
-0.011607394 -0.00269252 -0.008073096 0.0037073004 -0.018712621 -0.0023339447 -0.004755557 -0.0046379906
-0.004301073 -0.006080558 -0.02103189 -0.0124062635 -0.010938167 -0.0072467043 -0.0163826 -0.010048982
00000000: 5836 99bb b0a4 5e3b de0d 19bb 961a 83bc
00000010: b6d4 7dbc b8f1 0dbc 0b3a 8abc 0b3f dabc
00000020: 2a46 1c3c 42a9 84bb 33d2 8fbc 6ed1 67bb
00000030: f3b0 a6ba d5b4 98bb 3665 0a3a ba2b 30bc
00000040: aa31 d2ba 7f56 a6bc 8db7 22bc d54d 64bc
00000050: 99ea 32bb 5f7d 563b f0c7 debb b5ce 74bb
00000060: 65e9 52bc c548 2f3a 5a4f 083b 5a57 8dbb
00000070: b0ef 85bb d910 97bb 8220 03bc a08b 17bc
00000080: 56c4 7f3b d71a 503b bd1d f03a 080f a1bc
00000090: 9446 99bc dfb3 afba d9d6 03bb f7b7 8dbb
000000a0: 3964 5bbc e55f 193b bdad 8bbc 1d4b 1b3c
000000b0: 9f54 a4bb 41c3 bdbc af2d 87bc 7370 05bc
000000c0: 91f5 5abc 765f 6cbc f174 a7bc cd8e 2dbc
000000d0: bfb4 81bc 56a9 abbb ae7a a6ba 92db a7bc
000000e0: 943b 41bc 4eb6 1dbc 3bc1 27bc 5ee5 943a
000000f0: 0182 0cbc 34d7 28bb b874 cebc 7b42 eb3b
00000100: 0da6 d53a f481 2ebb ae91 c9bb 680e 0dbc
00000110: c41e 973b e7fe a8bc 3362 ceba cae0 08bc
00000120: 054a 393b 65a7 54bc b4b1 18bc 2812 813b
00000130: fb53 f9bb e417 c73a d18b 5cbc b29c 9c3a
00000140: b13a c7ba cd94 3c3a e08d dabb bcbf a4bc
00000150: e8c4 27bc 460e d3bb 9d51 3ebc 27e8 83bb
00000160: 739f 0bbc 23c7 3dbc cec2 87bb a3c3 77bc
00000170: 67a6 533b e94a 17bc 44b1 4f3b 900f e9bb
00000180: 6c76 b2bc 17af 193c e9af 08bc ea81 f4bb
00000190: caf4 42bc 0477 0d3c 47e3 01bb e64e d4bb
000001a0: c0a3 25bc 39de bc3b 2406 5ebc a608 153c
000001b0: dacd 0fba a734 29bc 74d6 b338 ce7d 08bc
000001c0: f02c 3ebc fd74 30bb 0545 04bc 2ef6 723b
000001d0: 364b 99bc 18f5 18bb 81d4 9bbb 49fa 97bb
000001e0: 04f0 8cbb 6b3f c7bb 124b acbc a443 4bbc
000001f0: ff35 33bc c375 edbb cd34 86bc 7ca4 24bc

encoder.1.running_mean f4 [128]
-0.103642054 0.0012297711 -0.005426925 0.02312849 -0.0035058395 -0.08507585 -0.026599221 -0.00040642478
-0.11444539 0.0010969192 -0.0020136929 0.052543852 0.007392036 0.1629277 -0.00651303 -0.15860857
0.06607458 -0.13128996 0.011338771 -0.037260674 -0.04260722 -0.047779553 0.20801458 0.110438116
0.015621549 0.2064027 -0.20571642 0.0011696975 0.1145901 0.13263081 -0.16302353 0.04950845
-0.09187711 -0.009367367 -0.014960702 -0.180455 -0.20966502 -0.12689885 0.07278827 0.07099715
-0.19231243 -0.050496593 -0.011480458 -0.1938391 0.10596861 0.1904759 0.0024943573 -0.15014328
0.023215825 0.049750555 0.16094251 -0.08550845 -0.2020701 0.06441598 0.007720964 -0.03335061
-0.06123421 -0.08486564 0.17885159 -0.0043502883 0.15179616 0.19757965 -0.0044504707 0.011243748
-0.009145382 0.13732065 -0.19411027 0.054418907 -0.005584035 0.065039426 0.0022939334 -0.05442001
-0.0022147237 0.10152765 -0.13884716 -0.11733635 -0.015572957 -0.05911337 0.05232892 0.12670238
0.005042902 0.20985867 -0.06605103 -0.097779006 -0.06588968 -0.14394991 -0.14013809 -0.2006738
-0.20128454 0.020050814 0.11581324 0.21141252 0.18779725 0.0026999696 0.0074292165 -0.110335335
0.058128566 -0.22053479 0.071765505 0.005657468 0.036607668 0.044072505 -0.06539973 0.1924426
0.08512141 0.12438762 0.0012676683 0.11844676 0.13452214 0.07113377 0.15778932 -0.0027920725
0.12559895 0.016592229 0.107211955 0.21280877 0.007906363 -0.044867974 0.001097203 0.023006406
0.0013851961 -0.019186638 0.16439383 0.11598725 -0.10690155 0.0048184735 0.00021967254 -0.11775325
00000000: 4942 d4bd 4530 a13a 59d4 b1bb f677 bd3c
00000010: 3ac2 65bb 3f3c aebd 9ce6 d9bc 6915 d5b9
00000020: 5862 eabd 80c6 8f3a 29f8 03bb 3938 573d
00000030: e438 f23b 85d6 263e 416b d5bb 496a 22be
00000040: 1c52 873d e070 06be 41c6 393c a69e 18bd
00000050: e984 2ebd 7eb4 43bd c601 553e 612d e23d
00000060: 87f1 7f3c 3b5b 533e 53a7 52be 8950 993a
00000070: 37ae ea3d 5fd0 073e a4ef 26be 5fc9 4a3d
00000080: 112a bcbd 9679 19bc bb1d 75bc 32c9 38be
00000090: 6db2 56be c6f1 01be 0412 953d f466 913d
000000a0: 8ded 44be 84d5 4ebd 8818 3cbc c27d 46be
000000b0: 1206 d93d 1d0c 433e 5f78 233b 29bf 19be
000000c0: 1d2f be3c 3dc7 4b3d 1dce 243e 0e1f afbd
000000d0: 77eb 4ebe 86ec 833d 2400 fd3b a69a 08bd
000000e0: b9d0 7abd 09ce adbd df24 373e dd8c 8ebb
000000f0: 7470 1b3e 5252 4a3e 41d5 91bb b237 383c
00000100: 83d6 15bc c99d 0c3e d8c4 46be 5ce6 5e3d
00000110: 48fa b6bb 6433 853d d155 163b 84e7 5ebd
00000120: e624 11bb bbed cf3d f32d 0ebe 0a4e f0bd
00000130: b725 7fbc dc20 72bd da56 563d 45be 013e
00000140: ee3e a53b 31e5 563e c345 87bd 5c40 c8bd
00000150: 2bf1 86bd 9b67 13be 5c80 0fbe 6f7d 4dbe
00000160: 891d 4ebe 9b41 a43c 7e2f ed3d 867c 583e
00000170: ec4d 403e f9f1 303b c970 f33b 7ef7 e1bd
00000180: 3818 6e3d dfd3 61be cbf9 923d 4862 b93b
00000190: ecf1 153d 5f85 343d 4bf0 85bd ac0f 453e
000001a0: 2254 ae3d f0be fe3d e427 a63a 3794 f23d
000001b0: 2cc0 093e 95ae 913d 8693 213e 34fb 36bb
000001c0: 039d 003e 6dec 873c f191 db3d 8bea 593e
000001d0: b189 013c 7bc7 37bd 06d0 8f3a ee77 bc3c
000001e0: 788f b53a 4c2d 9dbc db56 283e b98a ed3d
000001f0: 33ef dabd 49e4 9d3b e657 6639 9e28 f1bd

encoder.1.running_var f4 [128]
0.5038649 0.032523237 0.19533242 0.5883946 0.094622284 0.022870254 0.7312166 0.15304928
0.07158048 0.8956102 0.8014357 0.10918947 0.23082969 0.103193596 0.15433833 0.22089408
0.20977053 0.07233823 0.38132825 0.21694866 0.84535676 0.17941871 0.35054535 0.14239337
0.19303949 0.22582656 0.3083392 0.07868197 0.26881653 0.21723577 0.13053997 0.2663066
0.15350498 0.2915521 0.36395845 0.18413219 0.46824682 0.18790424 0.37487656 0.031886697
0.7259657 0.011342369 0.25807223 0.20357199 0.3851452 0.28070474 0.23399666 0.09821724
0.43339628 0.27826858 0.45792368 2.0204651 0.12539236 0.050841242 0.2083081 0.52986014
0.068882205 0.64017344 0.12694298 0.0971796 0.13403341 0.11732145 0.23535818 0.1723356
0.15686126 0.109705076 0.22567566 0.14543176 0.12960126 0.2962636 0.06732853 0.047273614
0.19072682 0.2220042 0.10134726 0.19143575 0.24445225 0.2528323 0.3149164 0.20239024
0.18143135 0.26515147 0.09550002 0.103322335 0.213727 0.22807683 0.35385686 0.082064226
0.21946098 0.2222324 0.060861032 0.4482767 0.2674115 0.16448997 0.038994417 0.18274477
0.35245118 0.22890872 0.27973807 0.34984514 0.0465693 0.13526095 0.4142316 0.06832846
0.040903095 0.5914969 0.21006298 0.061767455 0.0646576 0.3782575 0.065019175 0.0931237
0.097538896 0.477686 0.17308608 0.12669209 0.065838836 0.4484021 0.09574959 0.15354286
0.36409017 0.1690456 0.0858614 0.123132385 0.34267727 0.43707398 0.085969165 0.6652232
00000000: 4afd 003f 1637 053d 3905 483e 07a1 163f
00000010: 54c9 c13d 665a bb3c 0331 3b3f f3b8 1c3e
00000020: c998 923d b646 653f e42a 4d3f bb9e df3d
00000030: 9e5e 6c3e 2a57 d33d de0a 1e3e 0f32 623e
00000040: 16ce 563e 1126 943d 753d c33e ca27 5e3e
00000050: 4d69 583f 8ab9 373e ae7a b33e 91cf 113e
00000060: 25ac 453e 143f 673e a3de 9d3e 0324 a13d
00000070: 52a2 893e 0e73 5e3e 45ac 053e 5759 883e
00000080: 6930 1d3e 5146 953e c358 ba3e 268d 3c3e
00000090: 0cbe ef3e f869 403e d2ef bf3e a09b 023d
000000a0: e3d8 393f 58d5 393c 0b22 843e 2d75 503e
000000b0: c031 c53e 88b8 8f3e d29c 6f3e 1f26 c93d
000000c0: 1ee6 dd3e 3879 8e3e f974 ea3e 4d4f 0140
000000d0: db66 003e e83e 503d b84e 553e eaa4 073f
000000e0: 1d12 8d3d 68e2 233f 57fd 013e 1906 c73d
000000f0: 0e40 093e 3a46 f03d bc01 713e be78 303e
00000100: 3da0 203e 0ead e03d 8517 673e 10ec 143e
00000110: 31b6 043e ddaf 973e 8ae3 893d faa1 413d
00000120: e44d 433e 1255 633e 278f cf3d bc07 443e
00000130: b151 7a3e 3c73 813e b93c a13e 633f 4f3e
00000140: 24c9 393e efc1 873e 8495 c33d a99a d33d
00000150: 40db 5a3e f98c 693e ba2c b53e 4a11 a83d
00000160: 61ba 603e e490 633e 6b49 793d 8684 e53e
00000170: 29ea 883e 0f70 283e 9cb8 1f3d 7221 3b3e
00000180: 7b74 b43e 0c67 6a3e d439 8f3e e71e b33e
00000190: 73bf 3e3d d981 0a3e 2a16 d43e cbef 8b3d
000001a0: 018a 273d 576c 173f c01a 573e dfff 7c3d
000001b0: 346b 843d f8aa c13e c628 853d a3b7 be3d
000001c0: 79c2 c73d 4293 f43e 7a3d 313e 92bb 013e
000001d0: 83d6 863d f694 e53e 5c18 c43d 573a 1d3e
000001e0: 076a ba3e 4a1a 2d3e 1ad8 af3d d52c fc3d
000001f0: 6573 af3e 29c8 df3e 9a10 b03d 114c 2a3f

encoder.4.weight f4 [64, 128]
0.004218392 -0.012950608 -0.051811717 -0.02756908 -0.011686833 0.084970795 0.028975483 0.09405002
0.036923293 0.019418573 0.03407207 0.0019738588 -0.07914496 -0.04635688 -0.027547816 -0.0020265714
0.04581101 0.039810345 0.06009937 0.022540217 -0.04233906 -0.042334106 -0.079815894 -0.06427728
0.040565673 0.044174213 0.0862029 -0.023011712 0.006461786 -0.027704464 -0.023163505 0.026537586
-0.02212855 -0.0068237926 0.022771569 0.0314591 -0.03155844 -0.06030972 0.010333293 -0.010431291
-0.045814272 0.029180968 -0.0033336375 -0.021349674 -0.043581355 -0.003772585 -0.08415447 0.0101820985
0.007022868 0.054677416 0.007771437 0.0033225503 0.027568156 0.05256956 -0.054663934 0.059484363
0.01878169 -0.060421873 0.03919061 -0.058497213 -0.035620436 -0.01749115 -0.04562203 0.06714426
-0.08761361 0.02862878 -0.07819921 0.018397333 0.024358416 0.043694638 -0.053026013 0.031249877
0.013673215 0.05733119 -0.005017718 0.027727505 -0.048733883 -0.04664966 0.07161395 -0.05560612
-0.0022042375 -0.00067944033 0.09812604 -0.019450087 -0.07256733 -0.024148542 0.032815497 0.041438937
0.07888376 -0.0057749287 0.021421662 -0.07351032 0.027544206 0.032700494 0.053102437 -0.026306728
-0.033344455 0.029900832 -0.063683294 -0.0547169 -0.08333939 0.0024903603 0.061868012 0.022762641
-0.014262195 0.020440795 -0.057065066 0.0074211913 -0.014936325 -0.045851342 0.08574078 -0.07102242
0.007950658 -0.080771394 -0.016820148 -0.042934388 0.046177864 -0.055779383 0.04140049 -0.06562179
0.04822646 -0.071595006 0.039639506 -0.03636341 -0.016553905 -0.015776196 0.05543721 0.022001201
-0.07769743 0.010631426 -0.07320322 0.07033757 0.021515341 -0.028962605 -0.048788503 0.043944858
-0.046336208 0.04262135 0.04975043 0.041660093 0.013004219 -0.0725265 0.06258791 -0.023480387
-0.022650087 -0.009483066 0.053228013 0.07745634 0.011493948 0.053082936 -0.081024334 -0.011718676
-0.07700999 0.030226914 -0.05592726 -0.04347033 0.0650823 0.079440355 -0.06712571 -0.05432859
-0.008221161 0.0232745 -0.010934747 -0.032667797 -0.056439452 0.03555507 0.08414846 -0.04880587
0.036642663 0.040536225 0.06476722 -0.0051910826 0.008561488 0.06953999 0.049350645 0.08304345
-0.02192706 0.03882755 0.057229158 -0.05904235 0.022131788 -0.022992814 0.05529545 -0.030180331
-0.0054528066 0.053788215 -0.076579586 -0.07761344 -0.05562558 0.059602343 0.052534234 -0.05865146
0.008891675 -0.06907439 -0.047858726 0.08338433 0.043586913 -0.031046914 -0.0032482669 0.01890185
0.02872532 -0.028698318 -0.052533153 0.04867581 0.011965251 0.03837658 -0.032645505 0.048551477
0.06557649 0.055972047 0.024764102 0.07446433 -0.002677909 0.021947715 0.06598912 0.079670355
-0.033174984 0.07812771 0.026688574 -0.004041731 0.07971845 -0.04431874 0.061418045 0.08517354
-0.05772867 -0.046127662 -0.09794903 -0.011633567 -0.08790699 -0.025926339 0.029323334 0.051505968
0.042406447 0.051276352 0.033448577 -0.058439992 -0.07736209 0.0059593 0.09134808 -0.002305881
-0.0059725572 -0.0553022 -0.05115347 -0.061933417 0.07177354 -0.011168536 -0.08255746 0.012949654
0.0059923436 -0.008066079 0.0310565 0.045462776 -0.08641808 -0.06254869 -0.005499234 -0.08399127
00000000: 703a 8a3b c92e 54bc 8638 54bd 8dd8 e1bc
00000010: 217a 3fbc 2b05 ae3d fe5d ed3c 4c9d c03d
00000020: e13c 173d b313 9f3c 288f 0b3d db5b 013b
00000030: c116 a2bd b6e0 3dbd f5ab e1bc 3ad0 04bb
00000040: 53a4 3b3d 2c10 233d c22a 763d 43a6 b83c
00000050: b96b 2dbd 8766 2dbd 8476 a3bd cea3 83bd
00000060: 3128 263d 05f0 343d 258b b03d 0f83 bcbc
00000070: 64bd d33b 79f4 e2bc 64c1 bdbc 5a65 d93c
00000080: ef46 b5bc 1f9a dfbb 718b ba3c 42db 003d
00000090: 6c43 01bd 5307 77bd f94c 293c 01e8 2abc
000000a0: bfa7 3bbd ed0c ef3c 2879 5abb 83e5 aebc
000000b0: 5d82 32bd 793d 77bb 2e59 acbd d1d2 263c
000000c0: 1620 e63b 6df5 5f3d 8aa7 fe3b 25bf 593b
000000d0: 9dd6 e13c 2e53 573d 4ae7 5fbd e0a5 733d
000000e0: 0fdc 993c ed7c 77bd 5586 203d c69a 6fbd
000000f0: bce6 11bd 9a49 8fbc 2ade 3abd ee82 893d
00000100: c46e b3bd e786 ea3c e826 a0bd 01b6 963c
00000110: 4d8b c73c 26f9 323d ce31 59bd beff ff3c
00000120: 9f05 603c 1cd4 6a3d ab6b a4bb cb24 e33c
00000130: 2e9d 47bd b713 3fbd 56aa 923d 3ec3 63bd
00000140: f874 10bb 781c 32ba 4ef6 c83d ca55 9fbc
00000150: 2e9e 94bd 2ad3 c5bc 8b69 063d e0bb 293d
00000160: cf8d a13d 9d3b bdbb 7b7c af3c 948c 96bd
00000170: 63a4 e13c f4f0 053d f181 593d 3581 d7bc
00000180: 3294 08bd 97f2 f43c 636c 82bd d41e 60bd
00000190: d8ad aabd 5035 233b 5069 7d3d b878 ba3c
000001a0: fbab 69bc 7473 a73c 0fbd 69bd 772d f33b
000001b0: 7db7 74bc 9ece 3bbd dd98 af3d 3474 91bd
000001c0: 7a43 023c 796b a5bd 68ca 89bc f8db 2fbd
000001d0: 0025 3d3d ec78 64bd 8f93 293d b864 86bd
000001e0: 1c89 453d 67a0 92bd 095d 223d cdf1 14bd
000001f0: 0e9c 87bc 153d 81bc 2112 633d dd3b b43c
00000200: d51f 9fbd 6f2f 2e3c 92eb 95bd 250d 903d
00000210: f140 b03c fc42 edbc 74d6 47bd 86ff 333d
00000220: 09cb 3dbd ba93 2e3d 1bc7 4b3d c6a3 2a3d
00000230: a60f 553c c688 94bd 172e 803d f159 c0bc
00000240: ad8c b9bc dd5e 1bbc 9e05 5a3d 6ea1 9e3d
00000250: 1d51 3c3c 7e6d 593d 16f0 a5bd b1ff 3fbc
00000260: 6ab7 9dbd 6f9e f73c fc13 65bd f20d 32bd
00000270: de49 853d a0b1 a23d 3479 89bd a887 5ebd
00000280: 0cb2 06bc 2aaa be3c a727 33bc abce 05bd
00000290: 0e2d 67bd 31a2 113d 0756 ac3d aae8 47bd
000002a0: 9e16 163d 5009 263d ada4 843d f519 aabb
000002b0: 7c45 0c3c fb6a 8e3d e723 4a3d af12 aa3d
000002c0: 61a0 b3bc a309 1f3d 1f69 6a3d 64d6 71bd
000002d0: b94d b53c 6d5b bcbc 7b7d 623d be3c f7bc
000002e0: 75ad b2bb 0851 5c3d c2d5 9cbd ccf3 9ebd
000002f0: a6d7 63bd 9621 743d 232e 573d 833c 70bd
00000300: 63ae 113c e076 8dbd 8307 44bd 67c5 aa3d
00000310: 3188 323d 1956 febc e0e0 54bb 0dd8 9a3c
00000320: 5d51 eb3c bc18 ebbc 012d 57bd 4960 473d
00000330: e609 443c c330 1d3d 4bb7 05bd eadd 463d
00000340: f74c 863d f242 653d 16de ca3c c180 983d
00000350: dc7f 2fbb b2cb b33c 4e25 873d 362a a33d
00000360: 7ee2 07bd 6c01 a03d ffa1 da3c 7f70 84bb
00000370: 6d43 a33d 9187 35bd 7d91 7b3d 776f ae3d
00000380: e674 6cbd 5cf0 3cbd 8099 c8bd b79a 3ebc
00000390: 9408 b4bd 7963 d4bc 7d37 f03c ecf7 523d
000003a0: 62b2 2d3d 2707 523d 6001 093d c65e 6fbd
000003b0: 0470 9ebd 3b46 c33b b414 bb3d 431e 17bb
000003c0: 71b5 c3bb 8f84 62bd 4d86 51bd e5ad 7dbd
000003d0: 01fe 923d 3cfc 36bc e313 a9bd c92a 543c
000003e0: 6c5b c43b 9627 04bc 336a fe3c 2d37 3a3d
000003f0: f6fb b0bd 8719 80bd eb32 b4bb 9d03 acbd

encoder.4.bias f4 [64]
-0.00096380943 0.013171123 0.0018761475 -0.011609144 -0.012619449 -1.9156667e-07 -0.025740216 -0.010055905
0.0010476487 -0.00051826984 -2.4088897e-06 -0.0012522531 0.0077258307 0.0166321 0.011172427 -0.020801416
-0.00034361798 0.002521421 0.0055548707 -0.00012666683 0.0041295844 3.850137e-07 2.3436118e-05 0.008882763
0.009356723 -0.010398345 -0.006122952 0.0007026995 0.0059042834 -0.0001465509 0.02064577 -1.7966497e-05
-0.003041645 -1.3162636e-05 -0.018426118 0.000408583 -0.02274414 0.023301974 -0.013113844 0.007880064
-0.012656454 -4.3202395e-05 -0.0043177786 0.0031369536 0.005161741 -0.023771944 -0.018878458 2.6584452e-05
-2.9858581e-06 -1.0736314e-06 0.00038166775 -8.5497726e-05 0.017985975 4.537815e-06 -0.0020553814 0.00063972716
-0.014042518 -0.002394817 0.0003309147 -0.0013954898 -0.025082476 0.0028888977 0.00020790819 0.00031870368
00000000: 28a8 7cba b2cb 573c 10e9 f53a 4734 3ebc
00000010: cec1 4ebc 72b1 4db4 25dd d2bc 86c1 24bc
00000020: 4251 893a 80dc 07ba 69a8 21b6 a422 a4ba
00000030: f728 fd3b 0b40 883c 8e0c 373c bb67 aabc
00000040: a027 b4b9 6d3e 253b a205 b63b ded1 04b9
00000050: 7751 873b e1b3 ce34 ae98 c437 0289 113c
00000060: f14c 193c d25d 2abc 0ba3 c8bb 5d35 383a
00000070: b878 c13b 75ab 19b9 5121 a93c c2b6 96b7
00000080: 5656 47bb 17d5 5cb7 5ff2 96bc 1537 d639
00000090: eb51 babc c8e3 be3c 73db 56bc 621b 013c
000000a0: 045d 4fbc 3834 35b8 277c 8dbb 5995 4d3b
000000b0: d223 a93b 61bd c2bc ffa6 9abc ad01 df37
000000c0: a760 48b6 b219 90b5 941a c839 3e4d b3b8
000000d0: 5357 933c 8943 9836 94b3 06bb 5db3 273a
000000e0: 9712 66bc 5df2 1cbb 9f7e ad39 dee8 b6ba
000000f0: c479 cdbc a953 3d3b ee01 5a39 af17 a739

encoder.5.weight f4 [64]
0.9874601 1.0071434 1.0068984 1.0178117 0.9970916 0.9943416 1.0106184 1.0227287
0.9914829 0.99714357 0.9961711 1.0099407 1.0039115 0.9829866 1.012552 1.0037334
1.0038426 0.9914379 1.0189432 0.9923703 0.9917783 1.0075128 0.97734165 0.99382555
1.0057021 0.9770568 1.0153911 0.99140906 0.9969458 1.0090629 0.9920168 1.0090744
0.9987899 1.0009838 1.000224 1.0170418 1.0143468 0.99139416 0.9976133 0.99058986
0.9743868 1.0112911 0.9956093 1.0112474 0.9939465 0.99039495 0.99897325 0.9967585
1.0067439 1.0189184 1.0070944 0.9974305 1.016879 0.99382603 0.98921674 0.98360586
1.0041622 0.9895839 1.0087904 0.99485236 1.0022297 1.0020386 0.989902 0.99740726
00000000: 2fca 7c3f 13ea 803f 0ce2 803f a747 823f
00000010: 6541 7f3f 2c8d 7e3f f25b 813f c6e8 823f
00000020: d3d1 7d3f cd44 7f3f 1205 7f3f bd45 813f
00000030: 2c80 803f 03a5 7b3f 4e9b 813f 567a 803f
00000040: ea7d 803f e0ce 7d3f bb6c 823f fb0b 7e3f
00000050: 2fe5 7d3f 2ef6 803f 1033 7a3f 5a6b 7e3f
00000060: d9ba 803f 6520 7a3f 56f8 813f fccc 7d3f
00000070: d737 7f3f f928 813f d0f4 7d3f 5a29 813f
00000080: b2b0 7f3f 3d20 803f 5707 803f 6d2e 823f
00000090: 1ed6 813f 02cc 7d3f 9663 7f3f 4c97 7d3f
000000a0: 6a71 793f fd71 813f 40e0 7e3f 8e70 813f
000000b0: 4773 7e3f 868a 7d3f b6bc 7f3f 912b 7f3f
000000c0: fcdc 803f eb6b 823f 78e8 803f 9b57 7f3f
000000d0: 1729 823f 626b 7e3f 4f3d 7d3f 98cd 7b3f
000000e0: 6388 803f 5f55 7d3f 0b20 813f a5ae 7e3f
000000f0: 1049 803f cd42 803f 386a 7d3f 1556 7f3f

encoder.5.bias f4 [64]
-0.021758843 0.0061802617 -0.009702219 -0.00043136533 -0.004026441 -0.011572834 0.0026108362 0.008191875
-0.014722884 -0.005482801 -0.006938206 -0.0065081287 -0.0021342316 -0.027055696 -0.0047998386 -0.008948807
-0.010318279 -0.007921504 0.004164295 -0.021293864 -0.015209245 -0.005035539 -0.024157714 -0.013143744
-0.011704509 -0.02640591 -0.0034627307 -0.013823832 -0.0102288965 -0.0022272211 -0.016625378 0.005166315
-0.0104298005 -0.0056761815 -0.013047105 -0.007457436 0.013435818 -0.015122363 -0.0079457285 -0.0056424993
-0.026726155 -0.0056919884 -0.00015212697 -0.001642788 -0.012690022 -0.022549098 0.005977748 -0.0073417053
-0.014624901 0.008714399 -0.0025305767 -0.0032949508 0.0041376674 -0.017337212 -0.013779441 -0.0148837725
-0.0091162445 -0.020793062 0.0101457 -0.011346299 -0.008592458 -0.0043240446 -0.013483108 -0.0067304443
00000000: 9a3f b2bc cb83 ca3b 0ef6 1ebc e028 e2b9
00000010: 3cf0 83bb fc9b 3dbc 901a 2b3b 3737 063c
00000020: 4038 71bc 11a9 b3bb e459 e3bb 2442 d5bb
00000030: 77de 0bbb e8a3 ddbc f747 9dbb 049e 12bc
00000040: 000e 29bc 32c9 01bc a374 883b 7870 aebc
00000050: 3230 79bc 2a01 a5bb 66e6 c5bc dc58 57bc
00000060: 45c4 3fbc 3551 d8bc fbee 62bb 5b7d 62bc
00000070: 1a97 27bc 92f6 11bb f231 88bc 314a a93b
00000080: c1e1 2abc 43ff b9bb 86c3 55bc 825d f4bb
00000090: e821 5c3c cac3 77bc cd2e 02bc b7e4 b8bb
000000a0: cff0 dabc dc83 babb 4684 1fb9 d152 d7ba
000000b0: cfe9 4fbc e3b8 b8bc fce0 c33b b092 f0bb
000000c0: 489d 6fbc d7c6 0e3c 08d8 25bb 1af0 57bb
000000d0: 4595 873b c506 8ebc 2ac3 61bc 11db 73bc
000000e0: 4d5c 15bc 3656 aabc 263a 263c d4e5 39bc
000000f0: 62c7 0cbc b7b0 8dbb 41e8 5cbc 0f8b dcbb

encoder.5.running_mean f4 [64]
-0.100859515 0.12367998 0.09372825 -0.10282911 0.3143837 -0.3214511 -0.1982962 0.15773088
-0.046230443 0.19526662 0.0029048594 0.08858122 -0.0074324375 -0.021138811 -0.090450585 -0.18697378
-0.031099388 0.061436377 0.19518518 0.2057615 0.0016283814 0.15845713 -0.4163557 -0.14715962
0.22212476 0.18869635 0.08903025 0.4135652 0.19771445 0.087068625 -0.044863217 0.2834798
0.056897063 0.18254581 -0.05970952 -0.029354071 -0.25283393 0.16638151 0.19850668 0.19367342
0.3751502 -0.052794654 -0.12523384 -0.08205047 -0.07977011 0.0055032573 0.15595354 -0.1728386
-0.16680245 -0.106263675 -0.10421695 0.00013682088 0.211042 0.28292248 -0.05473466 0.01435483
-0.009512249 -0.08669946 0.18150325 0.20673382 -0.05923715 -0.19498064 0.31461278 -0.009372561
00000000: 6f8f cebd ee4b fd3d 99f4 bf3d 1298 d2bd
00000010: e6f6 a03e 3d95 a4be 290e 4bbe 3484 213e
00000020: 225c 3dbd f9f3 473e 745f 3e3b 126a b53d
00000030: ce8b f3bb 4d2b adbc 283e b9bd 0e76 3fbe
00000040: 25c4 febc b6a4 7b3d a0de 473e 25b3 523e
00000050: 6a6f d53a 9642 223e 932c d5be 03b1 16be
00000060: ac74 633e 9e39 413e 7e55 b63d d1be d33e
00000070: a875 4a3e 0951 b23d 7ec2 37bd 4424 913e
00000080: e50c 693d 4aed 3a3e f891 74bd f377 f0bc
00000090: 7373 81be ea5f 2a3e 5645 4b3e 5352 463e
000000a0: b013 c03e 353f 58bd 4d3d 00be 140a a8bd
000000b0: 835e a3bd ab54 b43b 49b2 1f3e 9afc 30be
000000c0: 43ce 2abe c5a0 d9bd b26f d5bd 9377 0f39
000000d0: 651b 583e 37db 903e 7331 60bd 8530 6b3c
000000e0: 44d9 1bbc 7d8f b1bd fddb 393e 08b2 533e
000000f0: a7a2 72bd 01a9 47be ed14 a13e 5f8f 19bc

encoder.5.running_var f4 [64]
0.1642905 0.34000006 0.812922 0.42543823 0.2899993 0.45087332 0.39669922 0.4769102
0.36980408 0.6240662 0.42955533 0.50226176 0.40259072 0.43317115 0.5528565 0.4496829
0.49846184 0.2950594 0.60928756 0.6572121 0.3815142 0.70472246 0.4440987 0.3888268
0.57666254 0.3932941 0.7135774 0.5188496 0.56305254 0.43492204 0.4031616 0.37841126
0.4702517 0.5272638 0.32551953 0.710465 0.3445252 0.3621294 0.5028295 0.4028799
0.27743733 0.38621733 0.41202828 0.52063227 0.56964254 0.56866324 0.24124044 0.29306236
0.87125474 0.49205315 0.2963071 0.43582678 0.5438631 0.3005617 0.33680078 0.23882283
0.5553476 0.61786205 0.38870507 0.5512862 0.491874 0.43628702 0.38847047 0.3747332
00000000: c53b 283e 7d14 ae3e a81b 503f 0ad3 d93e
00000010: ca7a 943e ded8 e63e 291c cb3e 932d f43e
00000020: f656 bd3e cdc2 1f3f adee db3e 3a94 003f
00000030: 5f20 ce3e 9cc8 dd3e 0188 0d3f d63c e63e
00000040: 6436 ff3e 0712 973e 45fa 1b3f 0d3f 283f
00000050: d455 c33e b168 343f e860 e33e 4e14 c73e
00000060: 28a0 133f d85d c93e 02ad 363f 54d3 043f
00000070: 3624 103f 1aae de3e 326b ce3e 1fbf c13e
00000080: d5c4 f03e c3fa 063f 7faa a63e 09e1 353f
00000090: 9b65 b03e 0669 b93e 6fb9 003f 4646 ce3e
000000a0: 440c 8e3e 47be c53e 5ff5 d23e 2848 053f
000000b0: 18d4 113f ea93 113f bc07 773e 450c 963e
000000c0: 8d0a 5f3f 64ee fb3e 90b5 973e b024 df3e
000000d0: 9d3a 0b3f 39e3 993e 2771 ac3e f98d 743e
000000e0: 432b 0e3f 352c 1e3f 5a04 c73e 1821 0d3f
000000f0: e9d6 fb3e 0361 df3e 9ae5 c63e 08dd bf3e

encoder.8.weight f4 [32, 64]
0.03998733 -0.11912505 -0.07194383 -0.078973316 0.10988272 -0.069334686 -0.10409951 -0.040223975
0.014659354 0.05658971 0.083709195 0.08927903 0.025146492 0.120003045 0.06932089 0.039361823
-0.10293204 0.018155135 -0.02386702 -0.11704838 -0.06352978 0.097738154 0.052985422 0.09664987
0.09670349 -0.008417616 0.11920829 0.036412917 -0.03247278 -0.052377634 0.069123626 0.0599027
0.098079406 -0.012883476 -0.10847701 0.02286391 0.01840807 -0.07755215 0.03412165 0.002678966
0.09296036 0.01200932 -0.060231023 0.09773251 0.020001743 -0.036541395 0.07324061 0.12235308
0.050757635 0.020352336 0.07692771 -0.060577262 0.10716575 -0.056355406 0.005799462 0.12569813
0.04329437 -0.025903422 0.08324607 0.0680664 -0.11268675 0.0007456456 -0.10674591 -0.008006625
-0.022910902 -0.032935187 -0.024216628 0.05984254 -0.005451183 -0.10834847 0.02951816 -0.12761097
-0.061804622 0.08506495 0.10253884 -0.07001518 -0.06809509 0.046507567 -0.13203536 0.09828841
0.095943674 0.05402706 0.05592975 0.03944864 -0.08892763 -0.07130392 0.049001336 0.086579286
-0.0092914915 0.04067598 -0.13760926 0.087901615 -0.04035271 -0.08023348 0.12495137 -0.040938668
-0.06736165 -0.0046504103 0.077566735 0.0905458 0.011149037 0.09537262 0.071314596 -0.026515674
-0.075562134 -0.012577765 -0.023634536 0.030170282 -0.1112039 -0.07476588 -0.094007485 -0.11821911
0.07708572 -0.1446804 -0.008418737 -0.10249215 -0.060147505 -0.061795875 0.058774088 0.071638525
-0.0046317223 0.0015252137 0.007336075 0.11638119 0.07378014 -0.0320013 0.086571634 -0.10644185
0.05227036 0.09051438 -0.07464085 0.045474708 0.07449109 -0.115768045 0.023539767 0.10896947
-0.008592966 -0.03213015 -0.05068361 -0.05951173 0.017486505 -0.108308755 -0.09975975 -0.05995377
-0.1358827 0.10194031 -0.05633378 -0.08175252 0.030493336 0.074185476 0.1069941 -0.05076509
-0.009233138 -0.08079419 -0.08449676 -0.05378453 -0.00600122 -0.050302856 -0.044323046 0.059703894
0.03376302 0.08645119 0.06304429 0.08485692 -0.067815274 0.03859415 -0.09091348 0.047242686
-0.07409924 0.041119944 -0.12801267 -0.0057411026 0.09124769 -0.052819423 0.08020365 -0.00052847527
0.12624048 0.1298148 -0.060616955 -0.0068940013 -0.014516617 -0.026528241 0.01986206 -0.09746373
-0.09598238 -0.013017207 -0.12378722 -0.1307676 0.02524169 -0.09797426 0.08333933 -0.058731366
-0.017618379 0.083237 -0.13452284 -0.09938552 0.016655624 -0.043145437 0.05765403 0.06311463
0.007941626 0.036386974 0.09935251 0.025438104 0.06431218 -0.045616306 0.1114518 -0.046288047
0.055622917 -0.12840267 -0.0983024 -0.07832017 0.045285746 0.012356132 -0.09134335 0.115671195
0.04307618 0.09202619 0.031539924 0.010080277 0.08380223 -0.078275815 0.1141057 -0.08174088
0.012610287 -0.08894636 -0.093347296 0.10866262 -0.04499709 -0.013119483 0.09643338 0.119554035
-0.11666694 0.014236726 0.026003137 0.13282497 -0.02746538 -0.042299785 -0.092471175 0.040694408
0.055145457 0.015086698 -0.008612692 -0.08759989 -0.07343706 -0.032713123 0.008359056 0.051039945
0.041386195 -0.07864695 -0.021627354 -0.031237494 0.1191164 0.09437959 -0.105238326 -0.047860466
00000000: c1c9 233d d6f7 f3bd 4957 93bd c3bc a1bd
00000010: 310a e13d 58ff 8dbd 2032 d5bd e5c1 24bd
00000020: ca2d 703c 9dca 673d ba6f ab3d edd7 b63d
00000030: 0400 ce3c 28c4 f53d 1cf8 8d3d dd39 213d
00000040: 09ce d2bd 14ba 943c c584 c3bc 10b7 efbd
00000050: e71b 82bd f12a c83d 3e07 593d 5ef0 c53d
00000060: 7b0c c63d 0aea 09bc 7a23 f43d b625 153d
00000070: 2e02 05bd ee89 56bd b090 8d3d 895c 753d
00000080: dbdd c83d 3715 53bc 3229 debd 184d bb3c
00000090: 85cc 963c a9d3 9ebd 25c3 0b3d 9791 2f3b
000000a0: 0062 be3d bdc2 443c ceb4 76bd fb27 c83d
000000b0: b2da a33c 6eac 15bd 2cff 953d 4094 fa3d
000000c0: 3de7 4f3d f1b9 a63c 468c 9d3d dd1f 78bd
000000d0: b779 db3d edd4 66bd 6a09 be3b 03b7 003e
000000e0: 7055 313d 6a33 d4bc ea7c aa3d 6666 8b3d
000000f0: 50c8 e6bd 6e77 433a 9a9d dabd 382e 03bc
00000100: a5af bbbc 0ce7 06bd f361 c6bc 741d 753d
00000110: d69f b2bb cde5 ddbd 11d0 f13c 73ac 02be
00000120: d826 7dbd 8836 ae3d e2ff d13d 1e64 8fbd
00000130: 7075 8bbd b87e 3e3d 4734 07be 6f4b c93d
00000140: 1e7e c43d 7a4b 5d3d 9816 653d e694 213d
00000150: b01f b6bd ca07 92bd a0b5 483d 7b50 b13d
00000160: 573b 18bc db9b 263d 71e9 0cbe c305 b43d
00000170: e248 25bd 7351 a4bd 81e6 ff3d 4eaf 27bd
00000180: e8f4 89bd 7862 98bb 4fdb 9e3d 1470 b93d
00000190: 73aa 363c b852 c33d 630d 923d 6637 d9bc
000001a0: 52c0 9abd f812 4ebc 379d c1bc ab27 f73c
000001b0: dfbe e3bd db1e 99bd ff86 c0bd dc1c f2bd
000001c0: 1edf 9d3d 1927 14be beee 09bc 68e7 d1bd
000001d0: 3b5d 76bd ac1d 7dbd 19bd 703d 38b7 923d
000001e0: b4c5 97bb aee9 c73a 7563 f03b 4359 ee3d
000001f0: 0b1a 973d cc13 03bd 784c b13d 2ffe d9bd
00000200: 7219 563d 9a5f b93d 4ddd 98bd b043 3a3d
00000210: c98e 983d cc17 edbd 78d6 c03c 632b df3d
00000220: 83c9 0cbc e79a 03bd 9e99 4fbd 92c2 73bd
00000230: dc3f 8f3c fbd0 ddbd d74e ccbd 1692 75bd
00000240: d624 0bbe 15c6 d03d 40be 66bd dd6d a7bd
00000250: 29cd f93c 8eee 973d b91f db3d 0eef 4fbd
00000260: 9646 17bc 6d77 a5bd a30c adbd 2b4d 5cbd
00000270: e2a5 c4bb 5e0a 4ebd 158c 35bd 128c 743d
00000280: 184b 0a3d 520d b13d 5d1d 813d 77c9 ad3d
00000290: bce2 8abd e614 1e3d d930 babd 8c81 413d
000002a0: 58c1 97bd 636d 283d c115 03be dc1f bcbb
000002b0: 12e0 ba3d 2e59 58bd d041 a43d 6089 0aba
000002c0: 2f45 013e 2cee 043e 7c49 78bd 13e7 e1bb
000002d0: 1bd7 6dbc c151 d9bc c2b5 a23c 109b c7bd
000002e0: 6992 c4bd 2046 55bc 2784 fdbd f1e7 05be
000002f0: a9c7 ce3c bba6 c8bd d0ad aa3d 4d90 70bd
00000300: 6b54 90bc 2978 aa3d 5bc0 09be a38a cbbd
00000310: 6071 883c 45b9 30bd a226 6c3d 3e42 813d
00000320: 981d 023c 820a 153d 5479 cb3d 9263 d03c
00000330: 1bb6 833d 2ad8 3abd d740 e43d 8998 3dbd
00000340: dbd4 633d fd7b 03be c552 c9bd 5366 a0bd
00000350: 8c7d 393d 6071 4a3c 3912 bbbd 05e5 ec3d
00000360: a670 303d 3a78 bc3d 0230 013d bf27 253c
00000370: 81a0 ab3d 124f a0bd 40b0 e93d c367 a7bd
00000380: 619b 4e3c 8229 b6bd de2c bfbd 828a de3d
00000390: de4e 38bd 1af3 56bc dd7e c53d bfd8 f43d
000003a0: 14ef eebd 2841 693c 8804 d53c 4503 083e
000003b0: 14ff e0bc 8a42 2dbd 8761 bdbd 2eaf 263d
000003c0: 34e0 613d 332e 773c 401c 0dbc 9267 b3bd
000003d0: 2b66 96bd 32fe 05bd 6cf4 083c 430f 513d
000003e0: 9284 293d a711 a1bd d92b b1bc c6e5 ffbc
000003f0: 4df3 f33d 164a c13d 3187 d7bd 5609 44bd

encoder.8.bias f4 [32]
-0.05321584 -0.05040092 -0.009885336 -3.811328e-05 0.009775516 -0.0026619006 0.03668937 0.039453972
0.024852064 -0.038465742 0.004314357 0.015588391 0.030674933 -0.048675302 -0.0003417719 -0.010972704
-0.0036938628 0.0012940988 -1.586647e-05 0.006388596 -0.031739075 -0.0017057776 0.0060803085 -0.003418556
6.829094e-05 -0.024414869 0.04426557 -1.0625628e-06 0.0033696434 1.9051458e-05 2.789228e-05 0.053627927
00000000: daf8 59bd 3271 4ebd 1bf6 21bc d3db 1fb8
00000010: 7c29 203c 4873 2ebb 9847 163d 7d9a 213d
00000020: 8e96 cb3c 418e 1dbd 735f 8d3b 7366 7f3c
00000030: ff49 fb3c c15f 47bd d92f b3b9 dbc6 33bc
00000040: bc14 72bb c09e a93a fc18 85b7 6d57 d13b
00000050: d500 02bd 6694 dfba 533d c73b da09 60bb
00000060: 6b37 8f38 b101 c8bc d04f 353d 619d 8eb5
00000070: 3cd5 5c3b b2d0 9f37 37fa e937 f5a8 5b3d

encoder.9.weight f4 [32]
1.0197687 1.014361 0.9908789 1.0012445 0.99489707 1.0062946 0.9815002 0.98531246
1.0153589 0.96902096 1.017743 1.021206 0.990992 0.9752964 0.97636336 0.98162717
0.98838866 0.96019214 0.9787844 1.0276116 1.0113041 0.98801816 0.99170107 0.99917203
0.97829705 1.0184239 1.007361 1.0066895 0.9862481 1.0186281 1.0212215 1.004702
00000000: c887 823f 95d6 813f 3daa 7d3f c828 803f
00000010: 93b1 7e3f 43ce 803f 9943 7b3f 703d 7c3f
00000020: 48f7 813f c211 783f 6745 823f e1b6 823f
00000030: a7b1 7d3f 06ad 793f f3f2 793f eb4b 7b3f
00000040: 0a07 7d3f 27cf 753f 9d91 7a3f c788 833f
00000050: 6a72 813f c2ee 7c3f 1fe0 7d3f bdc9 7f3f
00000060: ad71 7a3f b75b 823f 35f1 803f 34db 803f
00000070: c17a 7c3f 6862 823f 63b7 823f 139a 803f

encoder.9.bias f4 [32]
0.029056482 0.018673332 -0.015226176 0.017177306 0.0141179785 0.011673928 -0.005968006 -0.008362882
0.03215175 -0.020099206 0.011492019 0.02867036 0.01455952 -0.0032849438 -0.0104040215 -0.004195807
0.008336047 -0.031549226 -0.0048421184 0.029845973 0.025578232 -0.012828963 0.007599722 0.00287378
-0.010247655 0.03118336 0.004846016 0.0031428626 1.6894906e-05 0.014555928 0.021075226 0.004105613
00000000: dc07 ee3c d1f8 983c 3677 79bc 6cb7 8c3c
00000010: 184f 673c 0144 3f3c 438f c3bb 7804 09bc
00000020: 8eb1 033d 17a7 a4bc 0549 3c3c 1ade ea3c
00000030: 0e8b 6e3c 3648 57bb a175 2abc fb7c 89bb
00000040: ea93 083c c339 01bd a2aa 9ebb 8b7f f43c
00000050: 7189 d13c 9230 52bc 1707 f93b 0756 3c3b
00000060: c8e5 27bc 3f74 ff3c 54cb 9e3b 7cf8 4d3b
00000070: 89b9 8d37 fd7b 6e3c f4a5 ac3c 6188 863b

encoder.9.running_mean f4 [32]
0.21974733 -0.17185277 -0.18014954 0.0642376 -0.19800971 -0.0030929986 -0.16838746 -0.13256034
-0.12026148 -0.27687845 -0.11168923 0.038397018 -0.13140512 -0.24292241 0.060659338 -0.082793176
-0.03709942 -0.20045301 -0.0013261129 0.29875872 -0.3593564 -0.009459147 -0.23852105 0.011281033
-0.17094669 -0.14867468 0.09450938 0.20760119 -0.014459466 0.06616118 -0.021344084 -0.1352402
00000000: 7205 613e 2cfa 2fbe 1f79 38be 018f 833d
00000010: 0fc3 4abe e8b3 4abb c36d 2cbe e6bd 07be
00000020: a74b f6bd 03c3 8dbe 53bd e4bd 3146 1d3d
00000030: 108f 06be a7c0 78be ed75 783d 788f a9bd
00000040: 90f5 17bd 8e43 4dbe f7d0 adba e7f6 983e
00000050: 90fd b7be 8afa 1abc dd3e 74be 15d4 383c
00000060: a60c 2fbe 2d3e 18be 228e c13d 6895 543e
00000070: 65e7 6cbc 837f 873d cad9 aebc 687c 0abe

encoder.9.running_var f4 [32]
0.7521049 0.6519943 0.7708989 0.4682338 0.43423262 0.6243441 0.29332343 0.4703088
0.39703006 0.40653458 0.7691199 0.568716 0.5312026 0.3525682 0.27430543 0.6140167
0.37311834 0.41455188 0.39666688 0.79075724 0.32252613 0.31905827 0.6687092 0.39589745
0.46079177 0.45925432 0.582913 0.5560148 0.44197366 0.7141419 0.6436907 0.70059013
00000000: f289 403f 19e9 263f a159 453f 57bc ef3e
00000010: bd53 de3e 04d5 1f3f 7d2e 963e 51cc f03e
00000020: 8647 cb3e 4d25 d03e 0be5 443f 5f97 113f
00000030: e5fc 073f d283 b43e c371 8c3e 3330 1d3f
00000040: 5e09 bf3e 2540 d43e ec17 cb3e 116f 4a3f
00000050: 2522 a53e 9b5b a33e 8730 2b3f 12b3 ca3e
00000060: e6ec eb3e 6223 eb3e c939 153f fc56 0e3f
00000070: 5f4a e23e 01d2 363f eac8 243f e059 333f
